{"weightsManifest": [{"paths": ["group1-shard1of17.bin", "group1-shard2of17.bin", "group1-shard3of17.bin", "group1-shard4of17.bin", "group1-shard5of17.bin", "group1-shard6of17.bin", "group1-shard7of17.bin", "group1-shard8of17.bin", "group1-shard9of17.bin", "group1-shard10of17.bin", "group1-shard11of17.bin", "group1-shard12of17.bin", "group1-shard13of17.bin", "group1-shard14of17.bin", "group1-shard15of17.bin", "group1-shard16of17.bin", "group1-shard17of17.bin"], "weights": [{"dtype": "float32", "shape": [8, 100, 32], "name": "CNN/kernel"}, {"dtype": "float32", "shape": [32], "name": "CNN/bias"}, {"dtype": "float32", "shape": [15676, 100], "name": "Char_Embedding/embeddings"}, {"dtype": "float32", "shape": [17472, 10], "name": "Dense/kernel"}, {"dtype": "float32", "shape": [10], "name": "Dense/bias"}, {"dtype": "float32", "shape": [10, 1], "name": "Output/kernel"}, {"dtype": "float32", "shape": [1], "name": "Output/bias"}, {"dtype": "float32", "shape": [156751, 100], "name": "Word_Embedding/embeddings"}]}], "modelTopology": {"training_config": {"metrics": [[{"class_name": "TruePositives", "config": {"dtype": "float32", "thresholds": null, "name": "tp"}}, {"class_name": "FalsePositives", "config": {"dtype": "float32", "thresholds": null, "name": "fp"}}, {"class_name": "TrueNegatives", "config": {"dtype": "float32", "thresholds": null, "name": "tn"}}, {"class_name": "FalseNegatives", "config": {"dtype": "float32", "thresholds": null, "name": "fn"}}, {"class_name": "BinaryAccuracy", "config": {"threshold": 0.5, "dtype": "float32", "name": "accuracy"}}, {"class_name": "Precision", "config": {"top_k": null, "dtype": "float32", "thresholds": null, "name": "precision", "class_id": null}}, {"class_name": "Recall", "config": {"top_k": null, "dtype": "float32", "thresholds": null, "name": "recall", "class_id": null}}, {"class_name": "AUC", "config": {"label_weights": null, "name": "auc", "dtype": "float32", "thresholds": [… "curve": "ROC", "summation_method": "interpolation", "multi_label": false, "num_thresholds": 200}}]], "loss": "binary_crossentropy", "optimizer_config": {"class_name": "Adam", "config": {"beta_1": 0.8999999761581421, "beta_2": 0.9990000128746033, "name": "Adam", "decay": 0.0, "epsilon": 1e-07, "learning_rate": 0.0010000000474974513, "amsgrad": false}}, "weighted_metrics": null, "loss_weights": null}, "keras_version": "2.4.0", "model_config": {"class_name": "Functional", "config": {"layers": [{"class_name": "InputLayer", "inbound_nodes": [], "config": {"ragged": false, "dtype": "int32", "batch_input_shape": [null, 1000], "name": "Char_Input", "sparse": false}, "name": "Char_Input"}, {"class_name": "InputLayer", "inbound_nodes": [], "config": {"ragged": false, "dtype": "int32", "batch_input_shape": [null, 100], "name": "Word_Input", "sparse": false}, "name": "Word_Input"}, {"class_name": "Embedding", "inbound_nodes": [[["Char_Input", 0, 0, {}]]], "config": {"embeddings_initializer": {"class_name": "RandomUniform", "config": {"maxval": 0.05, "seed": null, "minval": -0.05}}, "name": "Char_Embedding", "dtype": "float32", "output_dim": 100, "trainable": true, "embeddings_regularizer": null, "input_dim": 15676, "mask_zero": false, "embeddings_constraint": null, "batch_input_shape": [null, 1000], "activity_regularizer": null, "input_length": 1000}, "name": "Char_Embedding"}, {"class_name": "Embedding", "inbound_nodes": [[["Word_Input", 0, 0, {}]]], "config": {"embeddings_initializer": {"class_name": "RandomUniform", "config": {"maxval": 0.05, "seed": null, "minval": -0.05}}, "name": "Word_Embedding", "dtype": "float32", "output_dim": 100, "trainable": true, "embeddings_regularizer": null, "input_dim": 156751, "mask_zero": false, "embeddings_constraint": null, "batch_input_shape": [null, 100], "activity_regularizer": null, "input_length": 100}, "name": "Word_Embedding"}, {"class_name": "Concatenate", "inbound_nodes": [[["Char_Embedding", 0, 0, {}], ["Word_Embedding", 0, 0, {}]]], "config": {"dtype": "int64", "trainable": true, "name": "Concatenation", "axis": 1}, "name": "Concatenation"}, {"class_name": "Conv1D", "inbound_nodes": [[["Concatenation", 0, 0, {}]]], "config": {"groups": 1, "kernel_constraint": null, "kernel_initializer": {"class_name": "GlorotUniform", "config": {"seed": null}}, "name": "CNN", "bias_regularizer": null, "bias_constraint": null, "dtype": "float32", "activation": "relu", "trainable": true, "data_format": "channels_last", "padding": "valid", "strides": [1], "dilation_rate": [1], "kernel_regularizer": null, "filters": 32, "bias_initializer": {"class_name": "Zeros", "config": {}}, "use_bias": true, "activity_regularizer": null, "kernel_size": [8]}, "name": "CNN"}, {"class_name": "MaxPooling1D", "inbound_nodes": [[["CNN", 0, 0, {}]]], "config": {"name": "Pool", "dtype": "float32", "trainable": true, "data_format": "channels_last", "pool_size": [2], "padding": "valid", "strides": [2]}, "name": "Pool"}, {"class_name": "Flatten", "inbound_nodes": [[["Pool", 0, 0, {}]]], "config": {"dtype": "float32", "trainable": true, "name": "Flat", "data_format": "channels_last"}, "name": "Flat"}, {"class_name": "Dense", "inbound_nodes": [[["Flat", 0, 0, {}]]], "config": {"kernel_initializer": {"class_name": "GlorotUniform", "config": {"seed": null}}, "name": "Dense", "bias_regularizer": null, "bias_constraint": null, "dtype": "float32", "activation": "relu", "trainable": true, "kernel_constraint": null, "kernel_regularizer": null, "bias_initializer": {"class_name": "Zeros", "config": {}}, "units": 10, "use_bias": true, "activity_regularizer": null}, "name": "Dense"}, {"class_name": "Dropout", "inbound_nodes": [[["Dense", 0, 0, {}]]], "config": {"name": "Dropout", "dtype": "float32", "trainable": true, "rate": 0.5, "seed": null, "noise_shape": null}, "name": "Dropout"}, {"class_name": "Dense", "inbound_nodes": [[["Dropout", 0, 0, {}]]], "config": {"kernel_initializer": {"class_name": "GlorotUniform", "config": {"seed": null}}, "name": "Output", "bias_regularizer": null, "bias_constraint": null, "dtype": "float32", "activation": "sigmoid", "trainable": true, "kernel_constraint": null, "kernel_regularizer": null, "bias_initializer": {"class_name": "Zeros", "config": {}}, "units": 1, "use_bias": true, "activity_regularizer": null}, "name": "Output"}], "output_layers": [["Output", 0, 0]], "name": "Model", "input_layers": [["Char_Input", 0, 0], ["Word_Input", 0, 0]]}}, "backend": "tensorflow"}, "generatedBy": "keras v2.4.0", "convertedBy": "TensorFlow.js Converter v3.3.0", "format": "layers-model"}